data.pth (torch, 7402 bytes, 6 tensors)

l1.weight f4 [8, 94]
00000000: 61eb 8cbe 91ba b1bd 9c70 a93e aa77 dd3e
00000010: fc5b c3bd 7504 d83e 60ce 2ebf b67c fd3c
00000020: edcf 87be 9233 0e3e a29c 5d3e f53d eebe
00000030: 7c6f 983c 9523 203c 0b81 453f 0a70 c93d
00000040: 1ef1 183f d9a5 8f3e f8a4 133f a405 013d
00000050: e1a3 153f 736d 81be 9c68 afbc 56e1 b13e
00000060: 4213 73be 2ee3 dc3d 12c8 303f 00d6 b03e
00000070: f45f 0ebe 022b 32be 4820 bdbe b63e 83be
00000080: 34bf 653f a793 0dbf 87fd e23e d382 f3bc
00000090: eaae 393f 68de 8c3e cfeb 1f3d 9f2f 0cbf
000000a0: 34e8 b0bd e7d3 043f 04bd febe 9184 02bf
000000b0: ceb6 ccbe a4f7 963d ab9a e93e 6fdc 913f
000000c0: 83dd c93e 7c15 a5be 5ab1 433f 97fb 19be
000000d0: a7b0 b3be accd c83e 12d3 d1bd ca3c 38bf
000000e0: a0d4 1c3f cb59 063f ad7f c1bc 90ba e33e
000000f0: 768e 6a3e c140 9cbe a6e0 55be f6e5 f1be
00000100: 8f26 4fbf 77b5 d8bd 53f4 213f de53 043e
00000110: 89b3 c1be 492e 4cbe e32e 083f a728 c13d
00000120: 46cf cf3e b7dd 953e 8a39 59bc 30d9 9b3e
00000130: b407 afbe 79fb 4bbe 5189 fdbd 4ef1 273f
00000140: 8daa 513e a89f 25bf eaa6 5bbe be22 84be
00000150: 3696 bdbd a655 89be 07ac d7bd 3e72 373f
00000160: d8c5 853e c6bc 1ebe 1b88 403e a228 57bb
00000170: d4da db3d a36e d43e f3fa 38be bd72 093f
00000180: 6adc fa3e b5a4 773d 2040 ec3e 69e1 6d3e
00000190: 9575 e13d 60e6 7b3e f783 d2be 48ba f53e
000001a0: 79f8 e43e 38db cabd 564c b43d 0b6c f13e
000001b0: 5ccd d4be 56c2 de3e 8e0a a3bc 6bc4 df3e
000001c0: 51cc 14bf 0093 903d 89d1 abbd 2c61 253e
000001d0: 9e81 4c3f 7c9a 183f 7496 703d 4938 eb3e
000001e0: 83f0 03bf 0177 ff3e 84c7 983e d314 1d3f
000001f0: 8369 bf3e 6160 0e3e 27cb d4be 8cbe fc3d
00000200: c317 03bf 250d 383f 9961 1e3d c52b 0b3f
00000210: f7ae e03e 7737 0f3e f2ab a3bd 7454 983e
00000220: 695b 953e 6cec 823e 1f52 2a3e 70ea 713e
00000230: c8d7 a9be dfc6 0a3d 2797 e13e 3178 76be
00000240: 5a8c a5be ce18 833e 229c ea3e 9478 9abe
00000250: cc0d 663f 8d9b 39be ba50 483e d01f 17bf
00000260: 7823 9d3e d082 c7bd 8f97 223f 10b3 7f3e
00000270: 1a8a 223d 7fd9 92bd 557d 84bd e2f3 3b3f
00000280: a069 f6bd 3895 023f 08f2 a03e 6419 363f
00000290: 2f48 9b3d 3cb8 e2bd 7ad9 93be 53e5 3d3f
000002a0: 4c2a c63e fdb0 66be 2a01 c93e b4f4 2e3f
000002b0: 127f c83e f8fb b7be bab7 ce3e f1b8 1cbf
000002c0: 7201 20be 27d1 30bc 70d7 d63d 93fe d23e
000002d0: c68b d33d 1d47 d1bd 4b28 5cbe 4a45 b73e
000002e0: 2111 a13e ffb4 c63e 0c49 493e 0e6d c73d
000002f0: 0b41 35be 6801 2f3f 2b6e adbd 4532 8b3d
00000300: 7481 c43e ef84 123f 05b2 8ebe 200d b93e
00000310: 3ffb bdbe b700 a53e 2795 453e c492 9abe
00000320: c25a 1a3f 7f89 183f 61b2 98be 7467 303f
00000330: ffcb 82bd 1305 943e 6c3f 9dbe 7169 b03e
00000340: 8cde 343e c734 88bd 9f39 433f 4217 1f3f
00000350: cc39 ee3c 0d3e 1b3f f401 4e3f 0da9 643e
00000360: ec50 f53d 5e2a 393f 7f23 273e e699 e6bd
00000370: 6abb 87be 8296 0cbe a475 053f 2f1b 3d3f
00000380: 9643 703e 56fd bbbd 923d ad3e 46e7 0dbe
00000390: 7f02 95bd 4bc8 013f 5aaf 35be 44e3 29be
000003a0: 8ada 1b3c b57f b63e e687 a93e 1a57 853e
000003b0: dcee 383e c93f 91be 7b05 60be fd8b 383e
000003c0: 65a6 8c3e b33c 1c3e 8566 673f 390c edbe
000003d0: b5fc 463e 6ca3 44be d777 973e e8c4 253e
000003e0: 268d 88be 8579 27be 33a0 a23e fe3e cabe
000003f0: d6e7 91be 35d5 143f f5e5 6d3e 3cc0 0f3f
-0.2752333 -0.08678163 0.33093727 0.4325536 -0.09539029 0.421909 -0.68283653 0.030943256
-0.26525822 0.1388686 0.21641782 -0.46531644 0.018607847 0.009774108 0.7715003 0.09835823
0.59742916 0.2805622 0.576736 0.03149952 0.58453184 -0.25278816 -0.021412186 0.3474223
-0.23737815 0.107855186 0.69055283 0.3453827 -0.1390379 -0.17399219 -0.3693869 -0.25633782
0.8974488 -0.55303425 0.4433405 -0.029725468 0.7253252 0.27513433 0.039043244 -0.54760164
-0.08638039 0.5188584 -0.49753582 -0.5098353 -0.3998322 0.073714525 0.45625815 1.1395396
0.39426813 -0.32242954 0.7644249 -0.1503738 -0.35095713 0.39219415 -0.102453366 -0.71967757
0.6126194 0.52480763 -0.02362045 0.44478273 0.22905907 -0.30518153 -0.20886478 -0.4724576
-0.8091821 -0.10581487 0.63263434 0.12922618 -0.37832287 -0.19939531 0.53196543 0.09431582
0.40587825 0.29270718 -0.013258347 0.30439138 -0.34185565 -0.19920148 -0.12379707 0.65602577
0.20475216 -0.6469674 -0.21450391 -0.25807756 -0.09257166 -0.26823157 -0.105308585 0.71658695
0.26127505 -0.15501699 0.1880192 -0.0032830616 0.107350975 0.4149066 -0.1806448 0.536907
0.48996288 0.06045981 0.46142673 0.23230518 0.11008755 0.245996 -0.41116306 0.47993684
0.4472082 -0.09905094 0.088036224 0.47152743 -0.41562927 0.43507642 -0.019902494 0.43704543
-0.5812426 0.07059288 -0.08389575 0.1615035 0.7988528 0.59610724 0.058737233 0.4594138
-0.51538867 0.4989548 0.29839718 0.613599 0.37385187 0.13903953 -0.41561243 0.123410314
-0.5120813 0.71895057 0.038667295 0.5436366 0.43883488 0.13986002 -0.0799178 0.29751933
0.29171303 0.25571 0.16632889 0.23624587 -0.3317244 0.033881065 0.44060633 -0.24069287
-0.32333642 0.25604862 0.45822245 -0.3017012 0.898648 -0.18125744 0.19562045 -0.5903292
0.30691123 -0.097417474 0.6351251 0.2497065 0.039682485 -0.0717039 -0.06469218 0.7341901
-0.12031865 0.5100894 0.31434655 0.71132493 0.07582127 -0.11070296 -0.2887686 0.74178046
0.38704145 -0.22528453 0.392587 0.6834214 0.39159447 -0.35934424 0.40374547 -0.612197
-0.15625551 -0.010792053 0.1049031 0.4120985 0.10329394 -0.10218642 -0.21499746 0.3579505
0.3145838 0.38809964 0.19656771 0.097375974 -0.17700593 0.6836152 -0.084682785 0.067966975
0.38380015 0.5723409 -0.27870193 0.36142826 -0.37105748 0.32227108 0.19295178 -0.30190098
0.60294735 0.595848 -0.29823592 0.68907857 -0.063865654 0.2891012 -0.3071245 0.34455445
0.1766302 -0.066506915 0.762598 0.62144864 0.029080294 0.60641557 0.8047173 0.22330113
0.11978325 0.7233027 0.16322134 -0.112598225 -0.26510173 -0.13729289 0.5213263 0.73869604
0.23463282 -0.09179179 0.33836037 -0.13857755 -0.07275867 0.5069625 -0.17742673 -0.16590601
0.009512553 0.35644308 0.33111495 0.26043016 0.18059868 -0.28368977 -0.2187709 0.18022151
0.274707 0.1525753 0.9039081 -0.46298388 0.19432338 -0.19202965 0.29583618 0.16188395
-0.26670188 -0.1635495 0.31762847 -0.39501184 -0.2849719 0.5813783 0.23232253 0.561527

l1.bias f4 [8]
00000000: d5ed 1a3f 8cce d43e 0eb9 983e 66b8 933f
00000010: 5a3e 973f 328f e73e b73c 003f d467 423f
0.6051915 0.41563833 0.29828686 1.1540649 1.1815903 0.45226437 0.50092643 0.7593968

l2.weight f4 [8, 8]
00000000: f096 883c 1490 b43d 68b6 cabd cfb9 64be
00000010: c5fd a9be 10b1 8abe e0e4 c43c 4432 fd3d
00000020: e444 88be ad0c 103e 5de1 a03f 2212 403f
00000030: 0792 a9bf 191d 603f faa8 b13f c45b a23f
00000040: 3036 80bf 8617 d3be 4f47 89bf 98f7 c43f
00000050: aca5 cb3f 2ef1 a4bf c4b9 5c3f af1c 5f3f
00000060: 77dc a93f 55a0 49be 2d1e fc3e 399b 1e3f
00000070: 8390 c93f 2b6e 1a3f 0908 a5bf 1952 403e
00000080: 2db1 693e 5b0a 9c3f 98c9 7d3f 2437 1bbf
00000090: c24a ad3f cae2 02be feab 93bf 4e2f 8f3f
000000a0: 848e b83f db48 64bf be7a 1dbe 9f72 0d3f
000000b0: 3c4e 50be 3913 933f d398 75bd 62b2 ab3b
000000c0: c03e 98bd d556 b43d ab7c 303e 6091 9abe
000000d0: b89f ce3c 432c a9bc 48ef ce3d 423e 21be
000000e0: 8025 043f d2e2 973f 05d3 7f3f a219 a8bf
000000f0: ac14 823d 4a90 723f e3bf 753e 0c2b 2c3f
0.016673535 0.08816543 -0.098980725 -0.22336505 -0.33201423 -0.27088213 0.024034917 0.12363103
-0.2661506 0.14067335 1.2568775 0.7502767 -1.3247689 0.875444 1.3879693 1.2684255
-1.0016537 -0.41228884 -1.0724887 1.538806 1.5909934 -1.2886102 0.86220956 0.8715314
1.3270406 -0.19690068 0.49241772 0.619556 1.5747226 0.6032435 -1.2893077 0.18781318
0.22821493 1.219066 0.9913573 -0.6063101 1.3538439 -0.12781826 -1.1536863 1.1186311
1.4418492 -0.8917367 -0.15378854 0.5525302 -0.20342344 1.1490241 -0.059960198 0.0052397707
-0.074338436 0.088056244 0.17235057 -0.30189037 0.025222644 -0.020650988 0.10104233 -0.15746406
0.5161972 1.1866095 0.99931365 -1.3132823 0.06351599 0.9475142 0.2399898 0.67253184

l2.bias f4 [8]
00000000: ac7f dcbd 3c65 1cbe 75e2 9a3f 9d9f 053f
00000010: a64e 203e 502f a03d b2a4 8cbe 6fcb 953c
-0.10766539 -0.15272993 1.2100359 0.52196676 0.15655002 0.07821524 -0.27469403 0.018285481

l3.weight f4 [11, 8]
00000000: c843 51bd 8534 d83e 92cb 443d 7540 d0be
00000010: 3305 acbf 8fe2 313f 05d7 d7bd 6545 c7bf
00000020: b08f ed3d 5dfe 313d b07f bc3d c5dd 373c
00000030: 2fcc f43d d902 41bf 44c4 443e 9955 aabe
00000040: 00ea 093b 1ae3 0a3f 96a5 8ebf 84c2 7ebd
00000050: 288a 6dbf d4bb ca3e 054d ac3d 1b4b 49be
00000060: e55e afbe 5296 b8bf 5121 2fbe c559 423f
00000070: b6e6 02bf 73af 733f f326 8ebc dce4 bbbf
00000080: 4e97 4e3e fb45 ccbf fa11 183f 17c5 093f
00000090: 240b 313f dcbf 0cc0 8fce 89bd a997 f1bf
000000a0: 6467 ba3d 2d04 223f eeba 49bf f1b4 a8bf
000000b0: 47f3 40be 359f 5dbf ab80 0fbd 421d 0b3f
000000c0: 2020 2f3c 8431 1fbf bafd a0bf 0889 903e
000000d0: 90de 263e a909 883e 4f6e 333e 7a0e 243e
000000e0: 4cea a4be fe43 013d 182c c8bf 56b8 843c
000000f0: 16ab 253f 9ea6 d1bf 6b1a 533e f57e a53d
00000100: 2a04 6f3e f51d 4c3f 3ef2 083f e113 a4bf
00000110: 0055 7cbf 26a2 94bf e54a f53d a484 34bf
00000120: 220f 0ebe f979 d5bf f5e0 d5be fa56 8c3e
00000130: 39e4 273f b0be c5bf 277d b5be 7091 ce3e
00000140: 16bf 9abe 85db 2ebf 5b10 9f3f 328c 923e
00000150: 389c 10c0 efba 82bf c5b6 20bd c40a 13bf
-0.05109003 0.4222757 0.048045702 -0.40674177 -1.3439087 0.69486326 -0.105390586 -1.5568053
0.11599672 0.04345547 0.09204042 0.011222308 0.119530074 -0.7539497 0.19215494 -0.3326843
0.0021044016 0.5425278 -1.1144283 -0.062197223 -0.92788935 0.39596426 0.08413128 -0.19657557
-0.34252086 -1.4420874 -0.17102553 0.7591823 -0.51133287 0.9518959 -0.017352557 -1.4679217
0.20174906 -1.5958856 0.5940243 0.5381636 0.69157624 -2.1992102 -0.06728851 -1.8874408
0.091017514 0.6328762 -0.7880086 -1.3180219 -0.18842803 -0.86571056 -0.035034817 0.5434152
0.010688812 -0.6218493 -1.2577431 0.28229547 0.16295838 0.2656987 0.17522548 0.16021147
-0.32210004 0.031558983 -1.5638456 0.01620118 0.6471418 -1.6378973 0.20615546 0.08080856
0.23341432 0.7973321 0.5349463 -1.2818567 -0.985672 -1.1611984 0.119771756 -0.70514894
-0.1387296 -1.6677848 -0.4177319 0.27410108 0.65582615 -1.5448818 -0.35447046 0.40345335
-0.30223912 -0.6830371 1.2426866 0.28622586 -2.2595348 -1.0213298 -0.039236803 -0.574383

l3.bias f4 [11]
00000000: ccdc 07be 129c 09bf 8987 933d 80cf 5b3e
00000010: ab79 efbd 22ba 6dbe 0946 8ebe cb8d bf3d
00000020: 3cdf 1abe a640 223e 2409 853e
-0.13267821 -0.5375377 0.07203586 0.21465874 -0.11693128 -0.23215535 -0.27787808 0.09353217
-0.1512422 0.15844974 0.25983536
